
*******************************************************************
==>> Run on: 2020-11-21 01:06:37
==>> Seed was set to: 1
==>> Dataset used: CIFAR10
==>> Batch size: 512
==>> Total training batches: 98
==>> Total validation batches: 0
==>> Total testing batches: 20
==>> Loaded model from checkpoint: ./results/checkpoint_clean_model.pth
DataParallel(
  (module): customizable_VGG(
    (features): Sequential(
      (0): Conv2d(3, 64, kernel_size=(3, 3), stride=(1, 1), padding=(1, 1))
      (1): ReLU(inplace=True)
      (2): MaxPool2d(kernel_size=2, stride=2, padding=0, dilation=1, ceil_mode=False)
      (3): Conv2d(64, 128, kernel_size=(3, 3), stride=(1, 1), padding=(1, 1))
      (4): ReLU(inplace=True)
      (5): MaxPool2d(kernel_size=2, stride=2, padding=0, dilation=1, ceil_mode=False)
      (6): Conv2d(128, 256, kernel_size=(3, 3), stride=(1, 1), padding=(1, 1))
      (7): ReLU(inplace=True)
      (8): Conv2d(256, 256, kernel_size=(3, 3), stride=(1, 1), padding=(1, 1))
      (9): ReLU(inplace=True)
      (10): MaxPool2d(kernel_size=2, stride=2, padding=0, dilation=1, ceil_mode=False)
      (11): Conv2d(256, 512, kernel_size=(3, 3), stride=(1, 1), padding=(1, 1))
      (12): ReLU(inplace=True)
      (13): Conv2d(512, 512, kernel_size=(3, 3), stride=(1, 1), padding=(1, 1))
      (14): ReLU(inplace=True)
      (15): MaxPool2d(kernel_size=2, stride=2, padding=0, dilation=1, ceil_mode=False)
      (16): Conv2d(512, 512, kernel_size=(3, 3), stride=(1, 1), padding=(1, 1))
      (17): ReLU(inplace=True)
      (18): Conv2d(512, 512, kernel_size=(3, 3), stride=(1, 1), padding=(1, 1))
      (19): ReLU(inplace=True)
      (20): MaxPool2d(kernel_size=2, stride=2, padding=0, dilation=1, ceil_mode=False)
    )
    (classifier): Sequential(
      (0): Linear(in_features=512, out_features=512, bias=True)
      (1): ReLU(inplace=True)
      (2): Dropout(p=0.5, inplace=False)
      (3): Linear(in_features=512, out_features=512, bias=True)
      (4): ReLU(inplace=True)
      (5): Dropout(p=0.5, inplace=False)
      (6): Linear(in_features=512, out_features=10, bias=True)
    )
  )
)
==>>> CLEAN VALIDATE ON TEST SET | val loss: 0.440558, val acc: 0.9083

prune_v0_lbl with the following parameters: 
  total_weights=9217728


==>> Starting layer-by-layer pruning...
Pruning prunable layer with index 0 to the fixed target prune ratio [50.00]:
Pruned weights: 864/1728 [50.00]
Pruning prunable layer with index 1 to the fixed target prune ratio [75.00]:
…
